argos_packages/ar_en/stanza/ar/tokenize/padt.pt (torch_old, 630343 bytes, 23 tensors)

embeddings.weight f4 [107, 32]
00000000: d15f 033f f0c7 a0be c99a dd3e 2445 8abe
00000010: a6d8 8b3e bf3f f63e 739f 0a3f 5e7d 9d3e
00000020: b1dc 8a3e fd41 cd3e c43a 0d3e 70e7 0f3f
00000030: e37d d5be e109 153f f54e 25bf ba9f d1bd
00000040: d367 f6be 2b66 0d3f 88fd 21bf c596 403e
00000050: cc7b c83e b5db d53e 9de8 133e f7dc 65be
00000060: 2b8b ffbe 0d55 e93d 67a1 0f3e 3ba4 8abe
00000070: 68c5 0e3f 4899 e93e 962a ba3c 33a1 0abf
00000080: f622 f6be 265a 9f3e 5cbd e1be 168c a0be
00000090: 0d17 01bd e2be c1bd af4f a1bf 1a1d fe3d
000000a0: 2065 163f 3152 9e3b d293 bcbe 8814 acbe
000000b0: 953c 9a3f b323 d5be 97d5 dd3e 85e4 e73d
000000c0: 73c0 573f 407b a53d 18ee 66bf a103 91bf
000000d0: f98c 2bbf f59e 6b3e 07e5 10bf 1173 b43e
000000e0: 52ec 313f 4e9e 603f 05d8 053e 1241 4d3e
000000f0: 9fd2 56bc 245d 73bf 1ba7 69bf 048b 773e
00000100: ce97 483f 50bf 793f c75c 3f3e cbd5 9bbe
00000110: 8e66 763e 5ee3 8bbf 1f06 393d 3e55 263f
00000120: ecce 7a3e d410 003d b44c d9bf c9c9 3d3f
00000130: a8ed 9b3f 062a 183e e2a4 4dbf 1a9a 3f3f
00000140: 4aa8 113f a2f5 9ebe e9b6 a7bf 953e 96bf
00000150: d5dd 9c3e a562 f73e 783a 87be 6428 a73e
00000160: f590 863f ef78 a1bf d6a6 9ebd a700 6abf
00000170: bd3b 003f f2dd 1540 33cf d3bf 2f5b c73d
00000180: c55e 073f 5ce9 c73f 3fe0 f6be 1b95 aabd
00000190: d6b2 9c3f e629 ff3f d472 c4bf d593 57be
000001a0: 1652 14bf 9546 a1bc 3423 bfbf 1863 893f
000001b0: 349a 623f a15d c3bd c1d7 8dbe 9fd1 323f
000001c0: 32eb ac3f 7694 ddbe 5325 2f40 60b2 0d40
000001d0: 100d 39bf 9c8c 26bf d5df 903f c38d 843f
000001e0: 633e be3e ff9b 61bf 3496 11be 3b0d c13f
000001f0: ce17 053f aa3a dbbe ecc2 5b3f 04dc 5f3f
00000200: 27e2 73be 7c70 24bf 39cf 0ec0 f8c7 993f
00000210: f5c6 963f 510a fc3d e8e1 583c 4451 cfbf
00000220: 5552 05c0 a5ee 303f 6367 50bf 8a0c bfbf
00000230: 3beb 363f 69e4 043d b14c 2f3f 388b 883f
00000240: 6c07 8fbf 59ac 573f e218 843e 05bb b3bf
00000250: 7e64 80bf ec43 99bf 1b43 733e 272a 043f
00000260: cb05 b1bf ddac 313d 8b8a 213f 8fe2 1ac0
00000270: c512 7fbf 95d6 86bf a833 71be e008 1bc0
00000280: ecb2 3fbf 8662 68bf 7437 aebf 73c2 c93f
00000290: 6428 f9bd 6c36 353f de7d 57be 8510 323f
000002a0: f76f 09c0 de17 90bf ea1a 983f 24da f23e
000002b0: a41a 0abe 9011 20be ca19 7fbf 88a9 4ebf
000002c0: ebd6 243f 0b7e c1be 69a5 953e a3cc c03e
000002d0: 92ef 1d3f efea 24bf 5b61 d0be 12fa 903f
000002e0: 0f19 983f dc8f c93d d592 84bb 882b 643f
000002f0: c4dd 2bbe ae3c d43f 6767 45be 80ca 0040
00000300: 7f1d 3bbf 9c04 883f 7460 85be 4dc0 943f
00000310: 1178 813f f558 643f 199f 113d 6b64 37bf
00000320: b300 993e 0eef a6be aa02 863f 9fbc 36bf
00000330: e465 0e3d 7208 febe ec11 0cbf 1485 cfbf
00000340: b3a9 d13e 9c66 4ebf ce64 babe a62b e8bd
00000350: ed87 3bbf 0428 183e cf48 953e 15ca e33e
00000360: d490 593f 2fcc c1be 7e71 283f c0ab c6be
00000370: 56c6 843f d295 9b3f fb01 0a3f 6ccd 55be
00000380: c254 933e cff8 ce3c 754b 1dbf 7568 6440
00000390: c45b ae3d 5f07 1abf e5ef 743f ce35 00bf
000003a0: b038 0abf c619 2fc0 43f5 dfbf f0b6 b53e
000003b0: 01a9 2c3e f896 cf3e 3be6 dbbf 07ec 9f3b
000003c0: 1d93 0bbf 9ae7 8a3f 57fe ddbe 34b7 9e3c
000003d0: 0813 673e 2d2e 393e e9e2 55bf 11d5 94bf
000003e0: 6c08 3dbe 420f 433f 7027 b1bf c958 febe
000003f0: 3ce8 c2bf 587e 5dbf b5f8 ea3e 327a 0dbf
0.5131808 -0.3140254 0.43282154 -0.27005875 0.27313727 0.4809551 0.5414955 0.3075971
0.271215 0.40089408 0.13791949 0.5621252 -0.41697606 0.582182 -0.64573604 -0.102355435
-0.48126087 0.5523402 -0.63277483 0.18807514 0.3915695 0.41769186 0.14444204 -0.22447573
-0.49910864 0.11393175 0.14026414 -0.27078423 0.5576997 0.45624757 0.022725385 -0.5415222
-0.48073548 0.31123465 -0.44089782 -0.31356877 -0.031516124 -0.09460236 -1.2602443 0.124078944
0.58748055 0.0048315753 -0.36831528 -0.33609414 1.2049738 -0.416288 0.4332702 0.113228835
0.8427803 0.08080149 -0.9020705 -1.1329232 -0.6701198 0.23009856 -0.5659947 0.3524404
0.6950122 0.87741554 0.13070686 0.20044354 -0.013111739 -0.95063996 -0.9127061 0.24174124
0.78356636 0.97557545 0.18687735 -0.3043655 0.24062559 -1.0928762 0.045171853 0.6497382
0.24492997 0.03126605 -1.6976533 0.74136025 1.2181902 0.1485978 -0.80329716 0.74844515
0.56897414 -0.31046778 -1.3102695 -1.1737849 0.30637994 0.48317447 -0.26411796 0.32648003
1.0512987 -1.2615031 -0.07746665 -0.91407245 0.50091153 2.3416715 -1.6547607 0.09734189
0.5287898 1.5618091 -0.4821796 -0.08329221 1.2242076 1.9934661 -1.5347543 -0.21052487
-0.57937753 -0.019686976 -1.4932618 1.0733366 0.88516545 -0.09539343 -0.2770367 0.69851106
1.3509276 -0.4327733 2.736653 2.2140121 -0.72285557 -0.650583 1.1318308 1.0355762
0.37156972 -0.88128656 -0.14217454 1.5082163 0.5198945 -0.42818195 0.858443 0.8744509
-0.23816739 -0.6423414 -2.2313979 1.2014151 1.1779467 0.12306655 0.013237454 -1.6196675
-2.0831501 0.6911414 -0.81407756 -1.4925702 0.71452683 0.03244439 0.68476397 1.0667486
-1.117414 0.84247357 0.25800234 -1.4041449 -1.0030668 -1.1973853 0.23756067 0.5162682
-1.3829893 0.043377746 0.63102025 -2.420078 -0.99638015 -1.0534235 -0.23554862 -2.4224167
-0.7488239 -0.90775335 -1.3610673 1.5762466 -0.12165907 0.70786166 -0.21044108 0.69556457
-2.1474588 -1.1257284 1.1883214 0.47432053 -0.13486725 -0.156317 -0.99648726 -0.80727434
0.6439044 -0.37791476 0.2922776 0.37656125 0.6169368 -0.6442098 -0.40699276 1.1326315
1.1882647 0.09841892 -0.004045824 0.89128923 -0.16783816 1.6581018 -0.19277726 2.0123596
-0.7309188 1.0626407 -0.2605015 1.1621186 1.0114766 0.8919824 0.035552118 -0.716376
0.29883346 -0.3260426 1.0469563 -0.7138156 0.03476514 -0.49615818 -0.54714847 -1.6212487
0.40949783 -0.8062532 -0.36405033 -0.1133645 -0.7325428 0.14859015 0.2915711 0.44490114
0.84986615 -0.37851092 0.65798175 -0.3880291 1.0373027 1.2155097 0.5390927 -0.20879143
0.28775603 0.025265126 -0.61443263 3.5688756 0.08513597 -0.601675 0.9567855 -0.500821
-0.5399275 -2.735948 -1.7496723 0.35491133 0.16861345 0.40544868 -1.7179636 0.0048804316
-0.5452135 1.0851929 -0.43358108 0.019374467 0.22565854 0.18084021 -0.8354936 -1.1627523
-0.18460244 0.76195157 -1.384016 -0.49677113 -1.5227122 -0.8652091 0.45892873 -0.5526458

rnn.weight_ih_l0 f4 [256, 36]
00000000: ef45 49be e070 d83d fdfc 95bd 90e8 f4bd
00000010: a7ef 15be b182 59bd d91c 84bd 35e5 51be
00000020: 0bdd 743e 0066 79be 6ba5 dabd 78c2 74be
00000030: 1f6c 5f3e 2e91 d4be fe8d 393d df19 823d
00000040: 5483 b73c 643f c0be 2578 a6bd 73da 47be
00000050: aee3 bcbe 2629 da3d 2cac d4bd 2ada 99bd
00000060: 8b69 3abc 5d1d 733d e381 1f3e eecd 9abe
00000070: c6d7 373e 96c7 bebd 33da 32be 915d 40be
00000080: b4e7 fdbd de08 693d 8e0a 66bd fbf7 43be
00000090: 7005 df3d d48d 7cbe 8a5b 503d eb10 293e
000000a0: c27e af3c 85d5 b0be 183e 48be c863 e2bc
000000b0: f132 383e 92f3 b53d b31a c7be cdcd 93be
000000c0: db01 193f 4745 5f3b 83f2 313e e3bf 553e
000000d0: b909 1dbd 3045 fa3e 6885 a8be 064a dabe
000000e0: fa19 0c3e d3a2 f1bc 9fe4 2ebf 2e4f dc3d
000000f0: 8311 1b3e 4524 8a3e 77d5 66be 5287 47be
00000100: 8226 babe cac3 9fbe 9782 56bf 375c 53be
00000110: 1068 bb3e e1db 36bd cabf bcbd efec afbe
00000120: d4dc 9b3d 860d 3b3e 5c51 b93e c536 90bd
00000130: a49b 33be d23a 58be bb68 cb3d a8a6 60bd
00000140: 8bbf 4d3e c308 c6bd 5d77 4c3d a78a 25bd
00000150: fbbe bfbd 953e 803d 04f8 83be 1356 98be
00000160: 1c41 3c3e 36de 64bd c520 7cbd d95f 0c3e
00000170: 9063 00be 2889 d83e 6835 b4bd da60 2abe
00000180: 075e bc3e c213 1dbc 19d3 aabd 9ada 0ebe
00000190: fbb8 1ebc 0562 a03d 7aac 7ebe 8128 333e
000001a0: 7b77 ad3e a9b1 72bd f10d 31be a28f 0dbf
000001b0: 3156 1fbb 9888 8c3e 1726 e5bc 6ae7 84be
000001c0: 0d4d 1abe 16c7 213d c4ae 6bbe 9672 12be
000001d0: 89ee bd3d 8b36 b8bd b48c 023e 0980 edbc
000001e0: 1521 253e ac06 b2be e531 6fbd 8f2a 0abf
000001f0: 22a1 623e 7c62 f9bd 2c42 14be 33bd ed3d
00000200: 4b10 1cbe 880a 113d a3d3 87be 8135 403e
00000210: 7279 923d 32b3 213d c50b 77be 1d21 983e
00000220: c5d8 bc3e 3e95 013d dba4 cb3d 61bd d83d
00000230: d97e 27be 3e38 02be feb7 9abc 7ee2 3f3e
00000240: 97cf 993e 79cc a93d be6c fd3d 4122 953d
00000250: 42ca 183e 96b0 8f3e f61a 55bc c165 c8bd
00000260: c202 3dbe 93d6 693e 6955 7cbe fea4 993d
00000270: aede 24bd b051 b03e 9e31 32bb 2898 ef3d
00000280: b85a c0bd 86f8 5c3e fc33 163e 620b 4d3e
00000290: ad88 ab3d e47d 03be 80ff 333e 416c 273e
000002a0: a630 2abc e1ea 19be 2691 51be a7c8 a53d
000002b0: 7b9b 083d e679 6abd 5b4c dc3d 271d 6fbd
000002c0: 9f61 01be bac1 78be 3668 88bd 1afb 503f
000002d0: 2436 b9bd 2466 2e3d dfb6 e9bc 0fde be3d
000002e0: 5c20 25be d65f 96be 06ed 4e3d f447 17bd
000002f0: 7356 d43d 026c aebe 4c2e 0fbe 056f dd3c
00000300: e946 7abc 9466 63be 04e7 e2bd a2a4 313c
00000310: aeb5 e43b 6c27 67be b2be 45bd 6741 efbd
00000320: 0e70 25be f20e f3bc d609 eebd f23a 83bc
00000330: 588c 823d 8c2c 013e 7be9 27bd 9db3 513d
00000340: 53c8 a6be 808d 8dbd e39c b7bd 5abf 5fbe
00000350: 2206 c4bd 754d e7bd 46e3 3fbe 47c1 323f
00000360: cbfa 03bd 7955 153e 249e a7bb 0423 bb3e
00000370: 6c14 443d 22c1 43be ff9b bbbc 7e90 24be
00000380: 68b2 3cbd a8ea 29bd b39d ac3d 6901 cebe
00000390: 9640 063f 9733 1d3d a0f9 78be 34d9 33be
000003a0: 13cd 4ebd ff17 8d3e bf86 2bbe b264 03bd
000003b0: f002 053e b0d9 413d 4875 4cbe 39c3 c7bd
000003c0: 447e 423e 4f92 92be 3fde 78be fe19 8cbe
000003d0: 7753 9cbe 44b2 8dbd c8b1 fbbe 62de 163e
000003e0: bc2e 423f c7ef 43be a964 38be f2f1 77bd
000003f0: d87e 53bd 1cce b03e 2294 093d 169d 3cbe
-0.19655584 0.10568404 -0.07323644 -0.1195842 -0.14642201 -0.053103153 -0.06450815 -0.20497592
0.23912446 -0.24355316 -0.10676082 -0.23902309 0.21818589 -0.41517013 0.04530143 0.06352591
0.02240149 -0.37548363 -0.081283845 -0.19516926 -0.36892456 0.1065238 -0.10384402 -0.075123146
-0.0113777025 0.059354175 0.15576892 -0.30235237 0.17953405 -0.09315412 -0.17466049 -0.18785693
-0.123977095 0.056893222 -0.05616241 -0.19137566 0.10889709 -0.24663478 0.05086855 0.1651036
0.021422748 -0.34537902 -0.19554937 -0.02763547 0.17988183 0.08884348 -0.38887557 -0.2886795
0.59768456 0.0034068392 0.17377667 0.2087398 -0.03833935 0.4888091 -0.3291428 -0.426346
0.13681784 -0.029496586 -0.683176 0.1075729 0.15143399 0.26980796 -0.22542368 -0.19485214
-0.36357504 -0.31204063 -0.83793014 -0.20640646 0.3660283 -0.044643287 -0.09216268 -0.34360453
0.07610479 0.18266878 0.36194885 -0.070416965 -0.17539841 -0.21116188 0.09932085 -0.054846436
0.20092599 -0.0966964 0.04991852 -0.040415432 -0.093625985 0.062619366 -0.25775158 -0.2975317
0.18384212 -0.05587598 -0.06155469 0.13708438 -0.1253798 0.42292142 -0.08799249 -0.16638508
0.36790487 -0.00958723 -0.08341045 -0.13950577 -0.0096876575 0.07831196 -0.24870482 0.1749592
0.3388022 -0.05925146 -0.17290474 -0.5529729 -0.0024312849 0.27447963 -0.027972264 -0.25957805
-0.15068455 0.039496504 -0.23015887 -0.14301524 0.092740126 -0.08994778 0.12748986 -0.028991716
0.16125901 -0.34770715 -0.058397193 -0.5397119 0.2213178 -0.121769875 -0.14478368 0.116083525
-0.1524059 0.035410434 -0.26528654 0.1877041 0.0715207 0.039477535 -0.24125583 0.29712763
0.36884132 0.03163647 0.09943553 0.10582996 -0.16356982 -0.12716767 -0.018886562 0.18738744
0.3004119 0.08290953 0.123742566 0.07281924 0.14920905 0.28064412 -0.013006916 -0.09785033
-0.18458083 0.2283576 -0.24641956 0.07502173 -0.040251426 0.34437323 -0.0027190219 0.116989434
-0.09392303 0.21579179 0.14668268 0.20023873 0.08375678 -0.12840992 0.17577934 0.1634989
-0.010387575 -0.15031005 -0.20465526 0.08094912 0.033351403 -0.057245158 0.10756751 -0.05837741
-0.12634896 -0.24292651 -0.06660502 0.8163315 -0.0904353 0.042577878 -0.028529583 0.09319698
-0.16125625 -0.29369992 0.050519012 -0.036933854 0.103680514 -0.34066778 -0.13982505 0.027030477
-0.015275695 -0.22207099 -0.11079219 0.010842474 0.0069796657 -0.22573632 -0.048277564 -0.116823964
-0.16156027 -0.029670212 -0.1162297 -0.016019318 0.06374425 0.1261465 -0.04099415 0.051196683
-0.3257471 -0.069117546 -0.08965471 -0.21850339 -0.09571482 -0.11294071 -0.18739042 0.6982617
-0.032221597 0.14583386 -0.0051152874 0.36550152 0.04787104 -0.19116643 -0.022901533 -0.16070744
-0.04606858 -0.04148355 0.08428516 -0.4023545 0.524423 0.038379278 -0.24313974 -0.17563325
-0.050488543 0.2755737 -0.1675062 -0.032078452 0.12989402 0.047326744 -0.19966614 -0.09754033
0.18993479 -0.2862725 -0.2430353 -0.2736358 -0.3053243 -0.06918767 -0.49159074 0.1473327
0.7585256 -0.19134437 -0.18007149 -0.06053347 -0.05163464 0.3453225 0.033588536 -0.18419299

rnn.weight_hh_l0 f4 [256, 64]
00000000: 4951 a6bd 3d61 85be 42c2 933e eb02 323e
00000010: 3b69 e43e 127a 9cbe bdef 29be 969f af3e
00000020: e661 22be 56ae 60be ecee bd3e a83b f83c
00000030: c19c 753e 5f54 3dbc 5e2d 0abe 93e5 d53d
00000040: a6d6 b0bd e884 943e b2e2 393e a891 8cbd
00000050: 2434 d3bd 7fee eb3c 3839 6a3e 60f3 be3e
00000060: 31ae 563e 3808 f5be 200a f63d 2c74 8b3e
00000070: 5f20 023f d462 983d dfcf 56be 129b 293e
00000080: 781e 95be a6cc 4ebe a14e 8ebe eb6a b4be
00000090: 722c 3d3e 434a 0e3f b4d0 713d d6e0 81bd
000000a0: a354 7dbd 1d82 93bd c979 03bd 69a5 0c3d
000000b0: 3e31 3d3d c291 413e f6db a83c ba74 8e3e
000000c0: f3ac 9dbe e3fd 0b3e ff45 943e b87e 443e
000000d0: 06c0 68bd ac26 4bbd 4e95 42be 81b3 863e
000000e0: fd26 5c3e 14c7 333e 4aa1 40be 0305 3bbe
000000f0: 6835 32bd 26c3 97bd b412 c33c bfbb 093b
00000100: 4f01 f9bd 547a c8bd 308f e83b c0d4 35be
00000110: ede2 8bbd 9145 92b8 b54f b53d 7c97 473e
00000120: 9680 393d 6b37 273e 79e0 fcbd eec7 823d
00000130: 2268 9abd bc0b 01be e396 26be 43a4 22bd
00000140: da90 e63d dac4 143c d3b8 3cbd 8f6b f4bd
00000150: c802 2c3e 6f7b 453e d704 94bd ece7 313e
00000160: f753 e8bb 1d97 163e 0470 95bc 6145 403e
00000170: d769 a1bc f6d0 173e d505 95bd e24c 193e
00000180: a820 0f3d 3ba8 26bb fe17 853d ccf8 ee3d
00000190: 1882 023b d0ad b03c a16e 253e 7995 f53c
000001a0: 14a6 e9bd 3040 243d aaa5 1abc c999 853e
000001b0: 4afc a43d 04bf f03d a2fc cebd 5c2e 2f3d
000001c0: a057 e2bd 4744 733d da72 933d eaee 49be
000001d0: 47cd 973c 4d5b ab3c ad91 4cbe 14c7 55be
000001e0: 2b03 adbd dbfe 83bd cc1a e5bc 82d5 8b3e
000001f0: 2f6e c53d 8ce8 3b3c f23a 03be a856 19be
00000200: 0b48 1a3e 3ab3 253d dfc4 26be 05a1 ca39
00000210: 098c fe3e 2e00 ebbe 4e89 47be cc01 59be
00000220: 97fd b0be bc60 c6be 7665 52bc c9a4 8abd
00000230: a916 8f3e bb0d 1f3d 6d49 fabd e65f e33e
00000240: f776 e33d 6238 10bd 6915 813c 7d33 fdbe
00000250: b5dc 8d3d 8b2d ffbc 5e24 023e 8f13 203e
00000260: c33f 41bd 083d b8be 5bd2 e73d 60d4 353e
00000270: dd25 2a3e 85c7 553d 7947 8ebe 9559 cc3d
00000280: 6be0 8dbe b977 25be d322 a7be 68cf 4cbe
00000290: 34f8 43bd 5e5c 2c3f f219 f13d ab2b 40be
000002a0: 02d5 583e 4f00 cebd 9b41 8f3d 0643 7f3e
000002b0: 5325 c5bc 5a51 fa3e f4ae fc3d 1d6e 213f
000002c0: 3cd8 ca3d 62d6 273d 3ec3 8a3e fbea 923e
000002d0: b17b 9dbe c8bf dcbd cf8c cabd 18a1 c43d
000002e0: 4fbc eebd 5b3f 5f3d 2b6d 19bc 4c91 fe3d
000002f0: 313b 72be a0a3 9f3d bb2f 2d3e a0f5 28be
00000300: 29c0 f43d 219e f8bd 1646 e43c fdaa 67be
00000310: 44c0 dbbd 97cb 1e3e 2035 ebbd 0dd4 c23c
00000320: 6762 f8bc 8311 dfbd 794c a33d 6840 393c
00000330: 711c d0bd 8e25 bd3e 77f6 143e 9ac7 b53c
00000340: 2fde 2abe 23d5 c93e 0773 c93e 8200 1f3e
00000350: ec97 2fbd d4c0 eebd 1c0c 69be 75e5 4bbe
00000360: b51d 7a3c d4ae ba3d e8cb 19be 236a 343d
00000370: 9828 1cbe f3fa a2bd f945 a23e b975 65be
00000380: 8c97 b0bd de1a 6dbe 06b9 8dbe f83a 903e
00000390: c99e 6bbe f448 91be 7c0d 35be 9f5a 58bc
000003a0: f302 50bd 8436 42bd 7233 993d 6402 1b3d
000003b0: ffec 463e 7a5e 18be ee3e 903d 5f8f 35be
000003c0: 7fe1 d5bd 431c 073e 9093 85bd c8c4 49be
000003d0: 95a1 a23d a556 acbd 6230 be3d f3ad 823e
000003e0: f3af 5c3d 3ec5 923d 8f9b 063d 375a 2cbe
000003f0: 7435 36bc 917f 383d 17b1 013d 6a6c 49be
-0.08120973 -0.2605075 0.28859144 0.17383926 0.44611534 -0.30561882 -0.16595359 0.34301442
-0.15857658 -0.21941504 0.37096345 0.030301884 0.23985578 -0.01155576 -0.13493869 0.104441784
-0.08634691 0.2900765 0.18152884 -0.06863719 -0.103126794 0.028800247 0.2287339 0.37295055
0.20964886 -0.47857833 0.1201365 0.2723707 0.50830644 0.07440725 -0.20977734 0.16563061
-0.29124808 -0.20195255 -0.27794364 -0.35237822 0.18473986 0.55582064 0.059036925 -0.06341712
-0.061848294 -0.072025515 -0.032098565 0.034337435 0.04618954 0.18903258 0.020612698 0.2782343
-0.30796012 0.13671069 0.28959653 0.19188964 -0.056823753 -0.049597427 -0.19002268 0.26308826
0.21499248 0.17556411 -0.18811527 -0.1826363 -0.043507963 -0.074102685 0.02381263 0.0021016446
-0.12158453 -0.09788957 0.0070971474 -0.17756939 -0.06830392 -6.97478e-05 0.088530935 0.1949138
0.045288645 0.16329734 -0.12347502 0.0638579 -0.07539393 -0.12602133 -0.16268496 -0.039707433
0.11258097 0.009080136 -0.0460747 -0.11934578 0.16797936 0.19285367 -0.072274856 0.17373627
-0.0070900875 0.14706083 -0.01824189 0.18776466 -0.019703789 0.14825806 -0.07276503 0.14970735
0.034943253 -0.0025429863 0.06498717 0.11668548 0.0019913968 0.021567255 0.16155483 0.0299785
-0.1140863 0.040100276 -0.009438911 0.2609389 0.08055933 0.11755183 -0.1010678 0.04276882
-0.110518694 0.059391286 0.071996406 -0.19720045 0.018530501 0.020917559 -0.19977446 -0.20876724
-0.0844787 -0.06445094 -0.02796688 0.2731133 0.096401565 0.011469018 -0.12815455 -0.14974463
0.15066545 0.040454127 -0.16286038 0.0003864841 0.49716213 -0.45898575 -0.19485971 -0.21192092
-0.34568474 -0.38745677 -0.012841573 -0.067697115 0.27946976 0.038831454 -0.12221036 0.44409102
0.11106675 -0.03521002 0.01575728 -0.49453345 0.06926862 -0.031149646 0.12709185 0.15632461
-0.04717995 -0.35984063 0.11319419 0.17756796 0.16616006 0.05219223 -0.27788904 0.09978024
-0.2771028 -0.16158952 -0.32643756 -0.20000994 -0.047844127 0.6732844 0.11772527 -0.18766658
0.21175006 -0.100586526 0.06994935 0.24927911 -0.02406565 0.4889019 0.12338057 0.63058645
0.09904525 0.040975936 0.27102083 0.286949 -0.30758432 -0.10778767 -0.09890138 0.09601039
-0.11657011 0.05450378 -0.009364407 0.12430057 -0.23655392 0.07794881 0.16912739 -0.16499949
0.11950714 -0.12139536 0.02786545 -0.2262382 -0.10730031 0.15507351 -0.11484742 0.023782754
-0.03032036 -0.10892012 0.079735704 0.01130686 -0.10161675 0.36942714 0.14547144 0.022189904
-0.16686319 0.39420423 0.3934557 0.15527537 -0.042869493 -0.11657873 -0.22758526 -0.1991175
0.015265872 0.09115377 -0.1501919 0.044046532 -0.1524986 -0.07958021 0.3169401 -0.22408189
-0.08622655 -0.2315478 -0.27680224 0.2816999 -0.2300979 -0.2837597 -0.17680925 -0.0132051995
-0.050784063 -0.04741527 0.074805155 0.037844077 0.19426344 -0.1487979 0.07043253 -0.17730473
-0.104434006 0.13194375 -0.06522286 -0.19703972 0.079409756 -0.08414964 0.09286572 0.25523338
0.053878736 0.07166527 0.032863196 -0.16831289 -0.011121143 0.04504353 0.031663027 -0.19670263

rnn.bias_ih_l0 f4 [256]
00000000: f787 f73e 0b59 a93d 5042 1b3e dbfd b1ba
00000010: ae25 263e df25 a43e aef7 813e fb47 303e
00000020: 8e34 903e cf9f 523e 8682 8e3e 4d2e 373e
00000030: cda9 743e b444 b63c 09d8 3c3e 8d60 61bc
00000040: 6cab 7c3e 8d3c 2ebd 1874 933e df65 1e3e
00000050: 628c 843e cc7d e03d 3f08 d03e e0c7 2f3e
00000060: c92e 293e f7eb 323e b975 203d 627f 093d
00000070: 0fbf fd3d e681 9f3e a660 f13d d6ce 873e
00000080: ddd4 9e3e 8c7b 7a3e 1572 a43e 4a9a 113e
00000090: 31f9 5c3e f6e4 043f 72b4 243e 252f 2a3d
000000a0: bc8f 2a3e 7315 e7bd f6b0 40be b729 cb3d
000000b0: 48ca 233e 9797 9e3d 5161 a03e b6a9 a63e
000000c0: 72ad 823e 0903 053e 5c71 113e 805a 1a3e
000000d0: ec7b 473e 9056 bc3c 98fe 0b3e ffa9 173e
000000e0: 6b40 4c3e 7ddb 333e 87d2 ab3d c328 253d
000000f0: fe33 943e 530c 853d a013 0bbd c067 8abd
00000100: a065 8cbd 1e09 2e3c 24f6 2cbe 4f59 643b
00000110: afdb d8bd 157d 2bbd f0e7 5cbd a461 08be
00000120: 70ed 043d 70a3 aabc 88c7 723d 6f85 8ebd
00000130: a1d3 febd 5a5a 0bbe 8b48 043e f4e0 0f3e
00000140: 248e 7cbd 9a0e 8c3d 2eca e9bd 1194 ddba
00000150: f9d8 34bd 296b 6fbd 7669 873e a02e 7abd
00000160: 112c 7abd 6aa8 62bd 9de4 463d f3ff d6bc
00000170: d7ce 5bbd a8ce 493e bf1a f4bd 461f 263d
00000180: 6a09 603d 36d1 53bd c773 c53c a27b bfbd
00000190: 009d 08be 5e1e 01be c7fd 91bd a519 a1bb
000001a0: 73a1 bebe 91ff 9cbd 54b8 81be e749 7f3d
000001b0: 5ff8 463d 9403 a6bd 8281 a2bd 1759 3e3d
000001c0: 2408 a1be 5796 70be 8029 7c3c 4043 84be
000001d0: 597b 10bd e8e5 df3d b476 823d 79a8 9bbd
000001e0: 9afd 023e 7076 74bd 95a9 3bbd 3844 8abd
000001f0: 53cd 3abe 34ff ba3d 2359 693d 2c28 7d3c
00000200: 5fa0 89be a9e0 1e3c 0327 463d 81c8 683d
00000210: bf8a 8d3e 05f3 91be 16d5 803d 6418 a13d
00000220: 0048 353e 64cf 81be 861f 7b3c aadb 8c3d
00000230: 33b1 383e c0b8 17be e27c b6be d7b5 83bd
00000240: 39f9 26be 62cd 833d fb11 ea3c 0005 94bc
00000250: d4af 05bc dfad 1d3e 072b 883e bbe9 473c
00000260: 95b4 193e 4978 a53c 2ac2 893e 64e3 d83c
00000270: 452a 333d 7e0f da3d c525 c53c daf1 dd3d
00000280: 30d2 24bd 5a0b ad3c 72f5 e63d c39d 6ebe
00000290: ca9e 0b3d be34 dd3d 13a9 023e 2c0f 9e3d
000002a0: 3e12 9bbb 82b6 aebc 07fe bbbd ffcd 47bc
000002b0: 49c2 5a3e 348a e73d 8684 85bd b69f 043e
000002c0: 50e2 873e 3613 f4bd 75e9 9e3d 3dfa 02bc
000002d0: 1ac8 c6bd 3e5e a5be 4f97 cdbd 96b4 22bd
000002e0: 55d2 66bd 5157 31bd 182a 5bbe f6e5 c5bd
000002f0: f8f1 f8bd 8046 bb3d 6922 95bd 5f6d dc3d
00000300: 8c7e cd3e b842 7d3e aea6 e83c 36a9 ac3d
00000310: 1fbf 8bbc 4a2d 6d3e f77d a13e c26d ae3e
00000320: 3714 fc3e 963c bf3d 12fc 9a3e a7cf 5e3e
00000330: 6ddc 1c3e 7e9d 4f3e ec52 3c3e 6679 c9bc
00000340: f96f 883e 64b3 323e 20d6 f53e 46a2 e43d
00000350: 5033 013e 6928 593d c16b 663e 6011 933e
00000360: 368b 8c3e e6bc 503d 1828 733d 12a4 e93d
00000370: c26f 883e c79d fd3e 3f37 043e 5541 c1bd
00000380: cb4d 6a3e 4557 5f3e ff34 a33e bfd5 c73c
00000390: 0ddc 453e fe79 653e 763e 88bc b304 923c
000003a0: 7f40 6e3d e46a 553e e1dc 2b3d 4abc 8a3d
000003b0: b427 843e c657 8c3b 5b3c dc3e 2a17 183e
000003c0: 942b 453e eda7 983e 1f20 313e c9fb c33d
000003d0: 833d ec3d 8423 1b3e 93af afbb 2d29 e83d
000003e0: db96 8c3a 610e 6a3e 6598 2b3e 1c9a f83c
000003f0: 75c1 9a3e 7513 093e 867c 2c3e 45c9 e13b
0.4834592 0.08268937 0.15162015 -0.0013579683 0.16225311 0.32060143 0.25384277 0.17214958
0.28165096 0.20568775 0.27833956 0.17888756 0.23892899 0.022249557 0.18441786 -0.01375593
0.24674767 -0.042538214 0.2879951 0.15468548 0.25888354 0.10961494 0.4063129 0.1716609
0.16521753 0.17472826 0.03917477 0.033568747 0.12389957 0.31153792 0.11786012 0.2652499
0.31021777 0.24461192 0.32118288 0.14219013 0.21579434 0.51911867 0.1608446 0.041548867
0.16656393 -0.11283388 -0.18817505 0.09920066 0.15995133 0.07743757 0.31324247 0.32551354
0.25522953 0.12989439 0.142034 0.15073586 0.19480866 0.022990495 0.13671339 0.14810942
0.19946449 0.17564197 0.08389764 0.040322077 0.28945917 0.06496491 -0.033954263 -0.0675807
-0.06855321 0.010622291 -0.1689077 0.003484327 -0.10588776 -0.041867334 -0.05393213 -0.13318497
0.032453 -0.020829886 0.05927232 -0.06959044 -0.12442709 -0.13608685 0.12918298 0.14050657
-0.061658993 0.068387225 -0.11415516 -0.0016905089 -0.044152234 -0.058451805 0.26447648 -0.06107962
-0.06107718 -0.055336393 0.048557866 -0.026245093 -0.053664055 0.1970774 -0.11919164 0.04055717
0.054696478 -0.05171319 0.024103059 -0.09349753 -0.13341141 -0.1260924 -0.07128482 -0.004916387
-0.3723255 -0.07665933 -0.25335944 0.06232634 0.04857671 -0.08106151 -0.07934858 0.04647168
-0.31451523 -0.2349485 0.015390754 -0.25832558 -0.035273883 0.10932523 0.06370297 -0.07600493
0.12792054 -0.059683263 -0.045816023 -0.06751293 -0.18242387 0.091307074 0.056969773 0.015451472
-0.26880166 0.009697118 0.04837705 0.05683184 0.27644917 -0.28505722 0.06290643 0.0786598
0.17703247 -0.2535354 0.01532734 0.06877835 0.18036346 -0.1481657 -0.35642153 -0.064311676
-0.16306008 0.06435658 0.028573027 -0.01806879 -0.0081595965 0.15398358 0.26595327 0.012201722
0.15010293 0.020198958 0.26905948 0.026475616 0.043741483 0.10647486 0.024065861 0.10837145
-0.040239513 0.021123577 0.11277284 -0.23302369 0.03408698 0.108010754 0.12759809 0.077177376
-0.0047323992 -0.02132726 -0.09179311 -0.012195109 0.21363176 0.11305657 -0.065194175 0.1295155
0.2653985 -0.11917727 0.07759372 -0.007994232 -0.09706135 -0.32298464 -0.100386254 -0.039723
-0.056352932 -0.043296162 -0.21402776 -0.09663002 -0.12155527 0.09144306 -0.07281954 0.107630484
0.4013561 0.24732482 0.028399792 0.08430712 -0.017058907 0.23161808 0.31541416 0.34068114
0.49234173 0.09337728 0.3027044 0.217589 0.15318461 0.20274922 0.18391007 -0.02459402
0.26647928 0.17451245 0.48014927 0.11163764 0.1261723 0.053017054 0.22502042 0.28724194
0.2744996 0.050961398 0.05936441 0.11408247 0.26647764 0.49534437 0.129117 -0.09436289
0.22881238 0.21810634 0.3187637 0.024393914 0.19322224 0.22409818 -0.016631346 0.017824506
0.058166977 0.20841557 0.041958693 0.067741945 0.2581154 0.0042829243 0.43014798 0.14852586
0.19254905 0.29815617 0.1729741 0.095695086 0.1153517 0.15150267 -0.0053615062 0.11335979
0.0010726111 0.22857048 0.16757353 0.030346923 0.3022572 0.13386329 0.16844377 0.0068904483

rnn.bias_hh_l0 f4 [256]
00000000: 8110 dd3e 6d98 273d fffc 223e b62d 783d
00000010: a74b 623e 0a06 a33e a171 af3e 65b6 923e
00000020: 5c56 013f b6f1 2b3e 280f 573e 30d1 363e
00000030: 9088 1a3e aef9 97bc 89ee fa3d e069 163d
00000040: 04ca 963e 81de 3cbe b89e a63e d32d 853e
00000050: 5cf5 5b3e 7faa 42bd bd4f 0c3f 92f6 0a3d
00000060: eeee 213d d5b4 573e 3281 3e3e dd64 3fbd
00000070: c4c4 023d d2b0 653e 8f27 333e 4d7e 8f3e
00000080: e375 0d3e b6ea 4e3e 7c6b 553e e5bc 523e
00000090: 0e1c 813e c42c a43e 6024 763d dd70 abbd
000000a0: 709c 21bc 9ff0 cb3c 865b 4b3c 4316 833e
000000b0: 19d2 043e 35c2 563e 4bad c73e ab29 8a3e
000000c0: 2890 603e e719 3f3e a6fa 423e ad49 063c
000000d0: a859 233e a67e 2fbd 7dee 2c3d 3525 3bbd
000000e0: 7554 1c3e 9514 753d 5ed3 e23d 5700 69bd
000000f0: 09fc df3e 2a0e 683e dd51 3e3d a1aa 8c3d
00000100: e044 edbd 1b19 33be fe04 10be 4cd6 973d
00000110: 3df9 b0bc 1cf0 a4bd 72c2 ddbc 1216 a4bd
00000120: ff91 46bd 13b1 4e3d 1b15 d63d 7748 debc
00000130: ecdc 05be 6b46 c33c 2dac 6bbc a5a3 80bd
00000140: 3562 153d 94c2 903d 097c 2d3d f0fa 98bd
00000150: d505 61be 7122 28be 5bec 1c3e d4fe debc
00000160: eb2b 6ebd c639 31bc 9f74 f33d bc47 14be
00000170: 1be4 263d 833b 283d 72cc 7dbe 12bd 09bd
00000180: b6f6 473e ef5c b43c 27fa 3dbe bfbf d1bd
00000190: d6a0 29be 50d5 453d 75b6 1d3c 09d5 133d
000001a0: 054b 79be 7768 f8bd 3207 fabd 4ca5 dbbd
000001b0: b57a f5bd a579 e1bd abcb 2cbe 7695 5abc
000001c0: 8a1b bdbe 2ad2 23be a375 be3d a8de 1fbd
000001d0: fc94 ff3d 3c7c 403e b372 af3d 4732 aa3c
000001e0: b640 703c d3c1 0ebe b9d9 943d c44e 6dbd
000001f0: ed7e 09be 3e44 b83c 6203 d83d 0c76 06be
00000200: 2066 9abe 9f4a 923d cfc6 91bc da8c 0e3e
00000210: de32 393e e2f7 72be 0f7b 163e b36d 563d
00000220: f9e8 143e 6093 abbc aa11 f4bd 3329 073e
00000230: b5c7 b53d 0f3b 02bd 5166 86be d5e5 a53d
00000240: 890c 59be d198 70bb 568d 19bd 0d9e 93bd
00000250: 68b9 bd3d b675 8d3d 5253 4a3d 37b3 913d
00000260: 6b99 c43d 612d 29be a00e 073e 7113 abba
00000270: 717f 213d 833e 663e 5b3c d83d 8bed e13d
00000280: 7020 033e 8aff 343d a1a3 173d fd21 1cbe
00000290: 6229 093d 09b4 073e 1d09 053e 08be 483e
000002a0: 8ff8 aebd fa36 a9bb f1c1 bdbd 48da 3d3e
000002b0: 4fee 1a3d 663a 153e f4bf 03be a6a0 b73d
000002c0: a504 223e 1b72 6bbd fa80 58bd 463f e13b
000002d0: 2beb 30be 1c04 a5be 4ef6 b5bd b46c 56bc
000002e0: b8a5 083c 747a 12bd 1463 9dbb bb7e c0bd
000002f0: e2f7 b43d 1092 7a3e e6d6 5a3d de02 c5bd
00000300: a764 fb3e a4ff 153e fb4b cc39 9c8e 293e
00000310: 8691 2e3e 7141 2b3d bcba 2c3e 166b a73e
00000320: 94a1 d23e 7de6 423e aa52 2f3e 7f1e 763e
00000330: c843 0fbd c48e 353e 4a75 5a3e 4a30 643c
00000340: 0a87 033e b734 0f3e 1071 bb3e 48bb 9d3d
00000350: 3501 473d 233c 493e 9727 103e 99c2 d73d
00000360: 3434 6f3e f085 2a3e 2cd5 2f3e 3410 883c
00000370: fe87 f33d 0f31 0a3f 8e5c 453d 4a59 4e3d
00000380: be03 863e c4d8 953e 6c91 b43e 2bce 0d3d
00000390: 7c5b a33e d7eb 8b3e 1611 b4bd bdbd 9cbd
000003a0: 7dcc c33d e5d6 df3d dd6a eb3d 8159 643e
000003b0: b8c3 303e e34a 063e 1d20 d53e a573 8dbc
000003c0: ef17 b13e e842 3c3e 6783 683e f24b 053d
000003d0: 4515 273e f5d0 343e bdfc 9abc cf1f 943e
000003e0: ade8 4c3d 3fb7 323e e5da ea3b 7398 233d
000003f0: 4b04 3c3e babb b63d f221 a63d 353f e3bd
0.43176654 0.04091685 0.15916823 0.06059047 0.22099172 0.31840545 0.3426638 0.2865478
0.505224 0.16791424 0.21001875 0.17853236 0.15091157 -0.018551674 0.12252528 0.036722064
0.29451 -0.18444254 0.32542968 0.26011524 0.21480316 -0.04752588 0.5480917 0.033926554
0.0395345 0.21065076 0.18603972 -0.04672705 0.03192593 0.22430733 0.17495559 0.28026047
0.13814501 0.20206723 0.20841783 0.2057987 0.25216717 0.32065403 0.060093284 -0.08371136
-0.009863958 0.02489501 0.012411958 0.25602922 0.12970771 0.20972522 0.389994 0.26984915
0.21929991 0.18662225 0.19040927 0.008196277 0.1595217 -0.04284539 0.042219628 -0.04568978
0.15266593 0.05983408 0.11075471 -0.05688509 0.43746975 0.22661653 0.04646479 0.068684824
-0.115854025 -0.17490046 -0.14064404 0.07413921 -0.021603221 -0.0805361 -0.027070258 -0.08012022
-0.048479076 0.05046184 0.10453244 -0.027134163 -0.13072556 0.023837289 -0.014384312 -0.06281213
0.03647061 0.07068363 0.042354617 -0.074697375 -0.21974881 -0.16419388 0.15324537 -0.02722112
-0.058147352 -0.010816997 0.11887478 -0.1448049 0.040744882 0.04107238 -0.24785021 -0.033627577
0.19527707 0.02201697 -0.18552457 -0.10241651 -0.1656526 0.048299134 0.009626021 0.036091838
-0.24345024 -0.121293 -0.12208404 -0.10724887 -0.11986295 -0.1100953 -0.16874568 -0.013341298
-0.36935073 -0.1599814 0.09299781 -0.0390307 0.124795884 0.18797392 0.08566799 0.020775927
0.014663866 -0.13941126 0.0726809 -0.057936445 -0.13427325 0.022493478 0.1054752 -0.13130969
-0.3015604 0.07143139 -0.017794995 0.13920918 0.1808581 -0.23727372 0.1469538 0.05235071
0.14541997 -0.020944297 -0.11917432 0.1319931 0.08875982 -0.031794604 -0.26249936 0.081004776
-0.21196188 -0.003671218 -0.037488304 -0.0720788 0.09263879 0.06907217 0.049395867 0.07114261
0.09599575 -0.16521217 0.13189173 -0.0013052059 0.03942818 0.22484784 0.10558387 0.11031636
0.12805343 0.044189014 0.037021283 -0.1524734 0.03348673 0.13252272 0.12991758 0.19603741
-0.085435025 -0.0051640244 -0.09265507 0.18540299 0.037824925 0.14573058 -0.12866193 0.08966188
0.15822084 -0.057481866 -0.052857377 0.006873998 -0.1727721 -0.32229698 -0.088848695 -0.01308744
0.008340292 -0.03576131 -0.004803071 -0.09399172 0.088363424 0.24469781 0.0534276 -0.096196875
0.4910023 0.146483 0.00038966522 0.16558307 0.170477 0.041810457 0.16868109 0.32698888
0.411389 0.19033237 0.17121378 0.24035071 -0.03497675 0.17730242 0.21333805 0.013927529
0.12844482 0.13984953 0.36609697 0.07701737 0.048585135 0.19651847 0.14077602 0.105351634
0.23359758 0.16652656 0.17171162 0.016609289 0.11891173 0.5398111 0.04818397 0.05037812
0.2617473 0.29266942 0.35267198 0.034620445 0.31905735 0.2732837 -0.087923214 -0.07653377
0.095604874 0.1092966 0.11494992 0.22299768 0.17262161 0.13114505 0.41626063 -0.017267058
0.34588572 0.18384898 0.22706376 0.03254313 0.16316707 0.17657836 -0.018919343 0.28930518
0.050026584 0.17452715 0.0071672075 0.03994031 0.18361013 0.08922525 0.08111943 -0.1109604

rnn.weight_ih_l0_reverse f4 [256, 36]
00000000: a2c6 cbbd 38f3 813e 016a 96be da0f 2b3e
00000010: 0de5 313c e182 443d 737f 8ebc 07e4 d3bd
00000020: 2134 de3a eb28 7cbe c49f a3bd 4c5d 403e
00000030: 2153 c6bd 0083 0abe 8d5c acbe acca 1fbe
00000040: ec53 073e 3c31 8b3c ffd6 f5bd 2ede 20be
00000050: 70f6 77be 4391 88be 5c91 cbbd 357e da3e
00000060: c2ac 1c3e f43f f5bd 187a fbbe 9c42 98bc
00000070: 55cc 12bd 522a 623c ba83 ffbd ddef 0fbe
00000080: 9cb0 6c3e 1f06 d23d 2b72 d93d cda9 34bf
00000090: fcb6 2b3e cdc5 fa3d ec92 983e c35d 1abe
000000a0: 9fe4 4abe c79b efbc 54bb 0c3e bf6e 7fbe
000000b0: 4478 203d afad 0dbd 09fc 963d 614f f6bd
000000c0: f14f 9abe 94cd 0cbe 4604 85bd 8c67 a43e
000000d0: da6d 87be 8c44 f2bc 0736 1e3f 5de0 783e
000000e0: e772 bd3e ce3b 83be 358e 263e 285f 373e
000000f0: 8b1d 14bf de84 92bd 795e 30be 5a9a 6e3e
00000100: 81bb 0fbe 3b9c 013e 261c ea3e 352e 263f
00000110: fa29 d7be 34d3 5abe 9394 2fbe c4f6 bf3c
00000120: a222 be3d a461 383d 866b bebd fb58 683e
00000130: b14d da3d d2ca 23bd 035a 2d3d 2b58 70be
00000140: bfb7 0bbe a98e 89bd 427b 683e 1dc5 113e
00000150: a4b6 b939 85be 9ebd aeae 6abd 3891 5abe
00000160: 7469 043d 0cbc 45be 5369 9ebd 5ed8 e8bd
00000170: 0582 a0be 3101 babd f92a d03d 88a6 d5bd
00000180: a523 0c3e 2003 153e 6ef4 123e 2a3f 023e
00000190: fe51 03bf a78b 813d ab29 4ebe 4d34 89bc
000001a0: 726d 95bd 6bd1 293e bc1a 0f3e 86d6 32bf
000001b0: f3aa 563e 9341 a6bd 5432 fd3d 759a 48bd
000001c0: b8fc 923d e961 dbbd 274e 383e 683c a8bd
000001d0: 06d9 28bd 1ff8 bb3d 7af6 c53d e732 263e
000001e0: c711 2bbd 5658 903d eff7 68be 7642 653e
000001f0: 4128 9fbd a69e 37bc ad02 8c3d 7402 f8bc
00000200: 67ca 1ebc 1f12 16bd 3787 543e 0519 d4bc
00000210: ffd7 6ebd 1d5e 74be dfe1 a93c 6057 2c3d
00000220: 9129 aebd 6d49 8ebd da0f 70bb 4121 5a3d
00000230: dec9 eabe b9a3 b23d f742 7c3e dd94 4e3d
00000240: f21e 1c3e ad42 bc3d 0866 d73d 2162 fbbd
00000250: 003c 35be c90a b43d 4810 6ebc 8e71 4cbe
00000260: 89be 173e f700 48be a9ad 00bd ffb1 bf3d
00000270: 9289 023d 607b 853d 3523 a4be d0b8 6d3d
00000280: 09d7 3ebe 1295 bebe 7173 0b3e 8279 f8bd
00000290: 512b 1bbd 7ff6 f8bc d5b6 e33d 77cd 113d
000002a0: 01e0 cebd f77c 96be 720d fabe a3c9 b2bb
000002b0: 3e84 d43d 5464 da3e 05d3 653d 3db2 29be
000002c0: f60b 1839 5e39 893c 50f9 a23d f594 393f
000002d0: 24f3 febd 4460 c3bb 0d1c 863e b8ec 6abc
000002e0: 25ff 22bd 2db8 d7bd b2f8 4cbd 5814 30be
000002f0: e474 ef3d f05d 0a3e f45b b53e f9c7 9f3d
00000300: 26d3 bcbd 2693 40be e205 79bc 3608 0a3d
00000310: 7078 6dbd ca26 173d b3ee 06bd 7933 ea3d
00000320: c1a5 ecbc 11d3 44be 35e1 c63c 1bbf 693b
00000330: e93f cebd e2fd d2bd c9ff c73d 2c09 3ebe
00000340: 9119 353e bb58 d03d 12f9 49bd 7bed 8cbe
00000350: 8fdd babe 9cf9 bdbd 905d edbd 9657 01bf
00000360: 2dfa 86be dfc2 203e 4bc0 663c 38a8 b73c
00000370: b585 2fbe 3485 37be 7948 8ebd 19f3 18be
00000380: 34d2 07bd 5c88 f43d f519 983c 1a98 453d
00000390: ae43 17bb 2468 253d 3fd1 07bd 8269 ea3c
000003a0: b42b 9ebc c868 fabd 0dc9 703e 344d 403e
000003b0: 55c5 1bbd 8eda e5bd c97b f93c dc54 3dbe
000003c0: b599 e3bc 2ca6 d83c 45a0 c33c ed6c 3b3d
000003d0: b305 ea3d 44da 10bb e8c5 b03d 4fd8 583d
000003e0: 4cb3 103f d844 413d 382b d2bc 8387 a23f
000003f0: bb37 573e 1629 033e 96ad d53d f73d 193e
-0.099499956 0.25380874 -0.2937775 0.16705266 0.010857833 0.04797638 -0.017394757 -0.10346227
0.0016952791 -0.24624984 -0.07989457 0.1878559 -0.09683824 -0.13526535 -0.3366436 -0.15604657
0.13215607 0.01699125 -0.12003898 -0.15709755 -0.24215102 -0.26673326 -0.099398345 0.42674413
0.15300277 -0.11975089 -0.49116588 -0.01858645 -0.035839397 0.013804035 -0.12476297 -0.14056344
0.23114246 0.10255074 0.10617479 -0.70571595 0.16769022 0.12244759 0.29799592 -0.1507483
-0.19813775 -0.029249085 0.13743335 -0.2494459 0.039177194 -0.034589466 0.07372291 -0.12026859
-0.30139115 -0.13750297 -0.06494956 0.3211025 -0.26450998 -0.029573701 0.6180119 0.24304338
0.37001726 -0.25631565 0.16265185 0.17907393 -0.5785758 -0.07154249 -0.17223538 0.23301068
-0.14036371 0.12657253 0.457246 0.64914256 -0.42024213 -0.2136963 -0.1714652 0.023433097
0.092839494 0.045014992 -0.09297852 0.22690193 0.1065935 -0.039988346 0.04232217 -0.23471133
-0.13644312 -0.067166634 0.22703269 0.14235349 0.00035422028 -0.077511825 -0.057295494 -0.21344459
0.03232713 -0.19310015 -0.07734933 -0.11369394 -0.31349197 -0.090822585 0.101644464 -0.10432154
0.13685472 0.14551973 0.14351055 0.12719408 -0.51296985 0.06325465 -0.20133083 -0.016748572
-0.07296266 0.16583793 0.13975042 -0.69858587 0.2096365 -0.08117976 0.12363115 -0.048975427
0.071771085 -0.10712034 0.17998563 -0.082146466 -0.041222595 0.09178185 0.09666152 0.16230355
-0.041765 0.07048099 -0.22750829 0.22388634 -0.0777135 -0.011207258 0.06836448 -0.030274607
-0.009691811 -0.036638375 0.20754705 -0.025890836 -0.05831146 -0.23864026 0.020737587 0.042075515
-0.08504022 -0.069475986 -0.0036630542 0.05325437 -0.45857137 0.08722634 0.2463492 0.050434936
0.1524618 0.09192405 0.10517508 -0.12274576 -0.1769867 0.087911196 -0.014530249 -0.19965193
0.14818777 -0.19531618 -0.031415615 0.09360122 0.03186948 0.065176725 -0.3205811 0.05803758
-0.18636717 -0.37223107 0.13618256 -0.12132551 -0.037883107 -0.030390976 0.11118857 0.035596337
-0.10101319 -0.29392216 -0.48838383 -0.005456166 0.10376786 0.4265467 0.056109447 -0.16571899
0.00014500305 0.016750988 0.07957709 0.72492915 -0.12448719 -0.0059624035 0.26193276 -0.014338665
-0.039794106 -0.105331756 -0.05004186 -0.1719526 0.11692217 0.13512397 0.35421717 0.07801814
-0.09219961 -0.18806133 -0.0151991565 0.033699237 -0.057976186 0.036902227 -0.032942485 0.11435599
-0.028887631 -0.1922114 0.024277309 0.0035666886 -0.10070784 -0.103023306 0.09765584 -0.18558186
0.17685534 0.10173174 -0.049309798 -0.27524933 -0.3649716 -0.09276125 -0.11590111 -0.5052427
-0.26362744 0.15699337 0.014083932 0.02241908 -0.17140849 -0.17921907 -0.06947417 -0.14936484
-0.03315945 0.11940071 0.018567065 0.04824076 -0.0023081112 0.04038252 -0.033158537 0.028614763
-0.019307949 -0.12227017 0.23514195 0.1877945 -0.038029987 -0.112233266 0.030454533 -0.18489403
-0.027783254 0.026446424 0.023880133 0.045758177 0.11426868 -0.0022102753 0.086314976 0.052940663
0.56523585 0.047184795 -0.025655374 1.2697605 0.21017353 0.12808642 0.104334995 0.14965044

rnn.weight_hh_l0_reverse f4 [256, 64]
00000000: 2e6d a5be 6932 79be e9dc 7fbe 7271 8dbe
00000010: 6b3a e4bd f092 8c3d 9562 73bd f46d 733d
00000020: 870f 603d 8d02 33be 9284 99be 5958 b5bd
00000030: 846a ad3d 46e0 993e dd60 59be 31e1 b53e
00000040: f117 6d3c 236e edbd 82ec f1be a3e8 873e
00000050: 618c ed3d 20d4 15be 1c06 923e f785 01be
00000060: 4fb7 4a3d fedb dfbd eec8 903e 226d bebd
00000070: 388b 093e c49c 12be d638 e73e dfae 58be
00000080: 3a45 b5be ca52 ce3d 0cb9 93be 7258 21be
00000090: 8aa5 9c3e 0296 053e 34ee aebe 4562 17bd
000000a0: 5d33 493d 6d8f 8abd a949 dd3c fcac 893e
000000b0: 0929 563e 4ec4 133e a9e0 173e d903 85ba
000000c0: c5d9 49be a015 413e 6066 83be 5bf9 bc3c
000000d0: 1d35 a4be 178f 38be 8f8f bbbe a45a 5abe
000000e0: 48db 08bd 06b7 383e 29b1 303e 6568 fabd
000000f0: dd73 0bbe 193a 063e 19fe 44bd 2ec0 1abd
00000100: 75ab 40bd 08af debe d9df 18be 6cb7 32bc
00000110: 176a 153e 775d 913d 60d8 87bd 2608 113e
00000120: 5c4b 223e d9af ddbc d3ab 9bbd cbc6 433d
00000130: ebf0 3fbb 61c3 2fbc 70dd 20bc f38b 783c
00000140: 0d9e 47bd 5fe1 ddbc e1d4 6abe 88c2 173e
00000150: df76 d03d 4f8b 763c 1a16 703d 7e7c 7e3e
00000160: d1c7 03bd 3e35 09be cbc0 653e 0976 c9bd
00000170: 9755 683e 1e43 8e3e c402 04be b26c b0bc
00000180: a65c c23d 8584 b43d 4a17 90bd 286e dbbd
00000190: 90b6 343d dd3e 55bd 3d51 a0be 3310 2b3e
000001a0: 276f cf3d cfc5 043e e91d 9e3d cb65 db3c
000001b0: df51 bfbc 87cf 073e ed5f 6b3e dbd6 563e
000001c0: 37a6 f4bd 6a49 e53d a1ce bdbd eb9b 443d
000001d0: 5065 5e3d 9e92 23be c754 90bd 4684 2cbd
000001e0: 05f8 b4bd ef55 943e 03f2 863d 3881 02bc
000001f0: 714f c4bb c840 07bd f770 5ebd 170b 4a3e
00000200: a404 a9be 2b13 b0be 9bdd d4bc 0469 68be
00000210: 5aa7 513d fa77 f13b 696d f7bb f075 853e
00000220: 7832 6fbd 2eb5 5abe 0989 5abb d2c4 b1bd
00000230: 1a7a 983e 2a45 7f3d 0015 83be ae6f 98bd
00000240: c70c 40bd 7f96 6ebc ee41 87be c1b0 443e
00000250: 7670 833e d1e9 d93d dfb1 a8bb 6f9b 81bd
00000260: f3df 9fbc 1386 05be 2823 b33b ccbb c73d
00000270: c64e aebc 0efd 4e3d 52b6 6a3c aabb dabc
00000280: 217b bbbe 69d4 873e a4bd 473d d0e7 7ebe
00000290: bb40 0b3e b347 0abe 21fd 02be 5df9 8f3e
000002a0: 5c84 e73d c266 9dbd 6558 083e 9492 2abd
000002b0: 3db7 393e cfe8 d3bc 3682 c43e 8a0a 9f3c
000002c0: f6ba ffbd 3ab6 193e 4823 1dbe 907d ef3c
000002d0: 1931 d6bd 7388 f1be 994d d4bd 8df0 b0bd
000002e0: 75cf 79be 171e 21bd dbdb 903e 1422 5dbe
000002f0: 5dd2 a33c c8a6 b9bd 5d9b 303d 7810 043e
00000300: 631c 053c bef4 f33c a998 0cbe 8e6f a5bd
00000310: 57d5 98be 2d00 06be 8d81 17bd 93a9 1bbd
00000320: 271b 4f3b 915f ca3d 0158 83be 31e1 6f3e
00000330: 4b9f c93e 300f 1c3e 6ebc a6bd ac91 46be
00000340: 01cc 713e 20eb edbd 1e0b cbbd 8645 d23d
00000350: e127 183f c6a3 4fbe aa3b 073c 16b1 3b3d
00000360: 1c73 7abe d113 bfbe 9122 053e fac4 f43e
00000370: 6110 b23d ec25 f3bd da2c b03e 4f7f f93c
00000380: bde0 8bbe 957d 803e 40e8 86be c37b 53be
00000390: 1bac f4bb cfdd a83e 0784 103e 4285 513e
000003a0: 1fda 85be 8806 58be 1093 963d 235a 353e
000003b0: c84d 923d f955 3f3d 44a5 0abb 2f5e 35bd
000003c0: e233 643e b853 f63d e71a 88be 8cee 06bd
000003d0: 8f1a b2be 6210 9a3e f99d 4cbe 3b9a c3bd
000003e0: 4eb7 a9bd fbf6 e0be aa07 de3d 9860 14be
000003f0: 97bf eb3d 49e2 443e d415 153f cdde 223e
-0.3230986 -0.24335636 -0.24986614 -0.27625614 -0.11143955 0.068639636 -0.059420187 0.05943103
0.054702308 -0.17481442 -0.29983956 -0.088547416 0.08467582 0.3005392 -0.21228357 0.3552337
0.01447104 -0.115932725 -0.47250754 0.26544675 0.11599041 -0.146317 0.28520286 -0.1264876
0.049491223 -0.10930632 0.28278297 -0.09298159 0.13432014 -0.14317614 0.4516055 -0.21160458
-0.35404378 0.100743845 -0.28852117 -0.15756395 0.30595046 0.13045505 -0.3416611 -0.03695895
0.04912125 -0.067656375 0.027012663 0.2688979 0.20914091 0.14430353 0.14831795 -0.0010148241
-0.19711979 0.18855906 -0.25664043 0.02306812 -0.32071772 -0.18023334 -0.36632964 -0.21323639
-0.033412248 0.18038568 0.17255081 -0.12226943 -0.13618417 0.131081 -0.04809389 -0.037780933
-0.047038514 -0.43492913 -0.14929141 -0.010907989 0.14591251 0.07097905 -0.06633067 0.14163265
0.1584906 -0.02706139 -0.07601132 0.047797006 -0.0029287885 -0.010727734 -0.00981842 0.015170085
-0.048734713 -0.027085004 -0.2293277 0.14820302 0.10178923 0.015047862 0.058614828 0.24852178
-0.03217298 -0.13399217 0.22436826 -0.098369665 0.226889 0.2778558 -0.1289168 -0.021536205
0.094903275 0.088143386 -0.07035692 -0.1071437 0.044119418 -0.052061904 -0.3131198 0.16705398
0.101286225 0.12966083 0.07720549 0.026781937 -0.023354469 0.13262759 0.22985812 0.20980398
-0.119457655 0.11195643 -0.09267927 0.048000257 0.054295838 -0.15973899 -0.0704742 -0.042118333
-0.088363685 0.28971812 0.06589129 -0.007965378 -0.0059909155 -0.033020765 -0.05430695 0.19730793
-0.33011353 -0.34389624 -0.025984576 -0.2269631 0.05118499 0.0073690386 -0.0075508845 0.26066542
-0.05839774 -0.21358177 -0.003334584 -0.086801186 0.29780656 0.06232182 -0.2560196 -0.07443176
-0.046887185 -0.014562248 -0.26417488 0.19208051 0.25671738 0.106403 -0.005148157 -0.06328475
-0.019515967 -0.13039427 0.0054668374 0.09752616 -0.021277796 0.0505343 0.014325695 -0.026700813
-0.36617377 0.26529244 0.04876484 -0.24893117 0.13598911 -0.13503914 -0.12791874 0.28119937
0.113045424 -0.07685615 0.1331497 -0.041643694 0.18136306 -0.025867848 0.38380593 0.019414205
-0.12486832 0.1501092 -0.1534549 0.029234678 -0.104585834 -0.47174415 -0.10366363 -0.086396314
-0.24395545 -0.039335337 0.28292736 -0.21595031 0.01999777 -0.09065014 0.043116916 0.12896907
0.008124444 0.029779788 -0.1373011 -0.08077918 -0.29850265 -0.13086005 -0.036988784 -0.038003515
0.0031601877 0.09881509 -0.2565308 0.23425747 0.39379343 0.15240169 -0.08141409 -0.19391507
0.23612978 -0.11617112 -0.0991423 0.10267167 0.5943585 -0.20277318 0.008253971 0.04582318
-0.24457973 -0.37319806 0.13001467 0.4780653 0.0869453 -0.118724674 0.3440922 0.030456213
-0.273199 0.2509581 -0.26349068 -0.2065268 -0.0074668056 0.32981727 0.14112864 0.2046099
-0.26142976 -0.21096241 0.07352269 0.17710166 0.07143742 0.04671285 -0.0021155635 -0.044279274
0.22285417 0.12027687 -0.26583025 -0.03294234 -0.34785888 0.30090624 -0.19982137 -0.095509015
-0.08286916 -0.4393843 0.108413056 -0.14489973 0.11511152 0.19226946 0.5823643 0.15905304

rnn.bias_ih_l0_reverse f4 [256]
00000000: 66fd 813e 45c1 e8bd 4f12 a8bd 69f7 493e
00000010: 84f8 c73d 8ec5 fd3d 0039 ff3d 2303 aa3d
00000020: 5285 a93d b365 983e f9bd 1a3e ae2e 8fbd
00000030: a98b d43d d348 c63d 2e4c 213d 2aca 413d
00000040: 2767 003e 14e1 80bc ee18 9b3c 8c1e 8d3e
00000050: c1d0 983d f9d0 9fbd 0f52 063e eb9a fb3d
00000060: aa18 443e 0599 773e 7497 7d3e b2c1 b53d
00000070: fcc6 e33d c646 86bc 9507 353e 7203 123e
00000080: 5dc2 7bbd 3ef6 3b3e 2cc9 d13d dd1e f23d
00000090: 1903 523e 1e79 753d e5b8 913d a82f 1a3c
000000a0: c5b9 1a3d 3da6 a03e 8a58 b53d 8154 f93d
000000b0: 2304 773e fbe9 85bc e279 603e b7d3 263d
000000c0: 7adf 143e 8d8b 4dbd 6c8a 31bd 3e7a 8dbd
000000d0: 1873 4a3e d601 eb3d e47c 3f3e 12f4 133e
000000e0: 589a 4a3d da8a 333e dd82 d53c 9246 9dbc
000000f0: 459a 243e 4f91 883d ba93 ea3d 9894 debc
00000100: e220 36be 1ea1 56be 0e04 e93d c226 99be
00000110: cfff 223d c07f 17be fce7 dabe fdb5 50be
00000120: 7adc 053d 893a a3bd a8d6 44bb 427e 34be
00000130: 3f33 d0bc 14b1 9d3c 7356 b4bd 7cb7 3ebe
00000140: 4691 23be 4dab 31be 0ca1 15be eeee 38be
00000150: fff1 c3bd 9710 f33d 4d38 2fbd 4a3b f5bd
00000160: e86f 2abc 88c1 a6bd ff3e 2bbe e654 00be
00000170: f9b5 71be 0a34 b3bd 6944 713c 1e8f 0ebe
00000180: 938f 02be 5af0 8b3d 9398 dcbc 8e99 d33c
00000190: 731a a7bd 27ef 0e3d 9b84 0dbe c970 97bb
000001a0: e13d 34bc ee8d 6ebe 8f2d 23be ea54 90bd
000001b0: a491 e13d 2e64 d2bd 4a2f 6fbd 3198 1abe
000001c0: bac3 45be 8c15 a1be 5356 39be b487 be3e
000001d0: 376d 75bd 5d08 54be 1541 11be b130 2c3d
000001e0: b6f9 16bd ae6c 953e a9d7 adbd 1f1e 14be
000001f0: 319e a9bc df03 653d 898f 5e3d 1c2c 143d
00000200: 08fe a63b f9c4 85bd 7e85 8fbd c585 13be
00000210: c44a 7bbe d415 33bc 8c32 a73c a99a 0ebe
00000220: feac f03d 605c 423d 0c5f b13b f998 bfbd
00000230: 4d46 28be f368 cb3d 9e5d afbd 3b28 66bd
00000240: df8a bf3c 76c9 80bd ab56 243d bb43 0c3b
00000250: 3bd6 003d 46e6 80be c690 a33c 6bdb e93d
00000260: 9500 c8bb 9d62 933d 689e 103c 30e0 e2bc
00000270: c62e 2d3e eb8c c03d ff00 b8bc 2628 953d
00000280: 9826 bd3d ad83 6c3c 7d34 08be 18d8 d13c
00000290: c9e0 f53d 84ba 3f3d 5f6c 1cbe cd6f 18bb
000002a0: 3129 7c3d 0440 8bbd e085 5b3d cb7f 523d
000002b0: 9126 ec3d a4ab 663d abe4 89be be36 a23e
000002c0: 2dad cabd ae9c 4d3d 462c 2abd 9b4a b0bd
000002d0: c12f b4bd 67f2 61bc 409e 91bd 1287 30be
000002e0: 2fd1 933c e668 7cbe 3f28 bbbc c482 3abd
000002f0: d321 1ebe 1713 873e e5a0 de3c e883 983c
00000300: 1660 8e3e eba2 9d3e d7fe fa3b 12cc 613e
00000310: 5e78 4ebd 5061 ae3d ae47 2d3d 576b 913a
00000320: 4a81 42be 46c9 8c3d 5ced 3abc 57b7 4e3d
00000330: cfc2 243e 6f47 7b3d 79f9 00bd d1e6 273e
00000340: f6c6 443e 1d1a e1bd e96f 803d 41e5 043c
00000350: 1262 113e 914b c7bd d0b2 a83c c88c 563e
00000360: 3266 d23d 854e e43d 54ce 193e d1dd 633e
00000370: 9fbe 8b3c d566 d93c 331e 52be d967 0b3e
00000380: 2c1f e73c 028c 4e3d 9b4c bbbd 3d8c bd3c
00000390: 21a2 033e 71a6 4a3e 3e83 483d 71b3 6e3d
000003a0: 064a 1b3e 5526 e63d 2fcf 5a3d 075f f93d
000003b0: 3e0d 25be 5fb9 a7bd 9021 2e3e 880f f33c
000003c0: d2a1 583e 3533 eebd fb7d 893d ca63 a43d
000003d0: 50bd c73e 6d45 463d 3259 103d 29ee 84bc
000003e0: 34b6 703d 1af3 56bd f467 673e c6c9 913d
000003f0: 96ac 803e 192b dfbc 8674 963e a855 7d3e
0.2538864 -0.11364988 -0.08206617 0.19723286 0.097641975 0.12391196 0.12462044 0.083013795
0.08277382 0.2976509 0.15111531 -0.06991325 0.103782006 0.09681859 0.03937929 0.04731194
0.1253935 -0.015732326 0.018932786 0.27562368 0.07461692 -0.0780353 0.1311724 0.12285408
0.19150034 0.24179466 0.24764806 0.08874835 0.11121938 -0.01639117 0.17678674 0.14259127
-0.061464656 0.18355653 0.102434486 0.11822293 0.20508994 0.05992996 0.07115344 0.009410776
0.03777482 0.3137683 0.08854778 0.12174321 0.24122672 -0.016346922 0.21921495 0.04072925
0.14538375 -0.050181914 -0.0433449 -0.069080815 0.19770467 0.114749596 0.18699986 0.14448574
0.0494636 0.17533436 0.026063377 -0.01919869 0.16074474 0.066683404 0.11453958 -0.027170464
-0.17785981 -0.20959899 0.113777265 -0.29912382 0.03979474 -0.14794827 -0.42755115 -0.20381923
0.032680966 -0.07970149 -0.0030035172 -0.17626289 -0.025415061 0.019249476 -0.088055514 -0.18624681
-0.15973386 -0.17350502 -0.14612216 -0.18059894 -0.095676415 0.11868399 -0.042778302 -0.11974199
-0.010402657 -0.08142382 -0.1672325 -0.12532386 -0.23604573 -0.0875016 0.014725783 -0.13921782
-0.12750082 0.06832953 -0.026928222 0.025830057 -0.08159342 0.034896042 -0.13820116 -0.0046215993
-0.011001081 -0.2329633 -0.15935348 -0.07047446 0.11014107 -0.10273014 -0.058394708 -0.15097119
-0.19312945 -0.3146175 -0.18099336 0.37212908 -0.05991861 -0.20706315 -0.14184983 0.042038623
-0.036859237 0.2918448 -0.084883995 -0.14464615 -0.020705314 0.055911895 0.054336105 0.03617488
0.005096201 -0.0653171 -0.070078835 -0.14406498 -0.2454024 -0.010930497 0.020409845 -0.13926186
0.11751746 0.047451377 0.005412942 -0.09355349 -0.16433068 0.09932127 -0.08562778 -0.05619071
0.023381649 -0.062884256 0.040121716 0.0021402675 0.031454306 -0.25175685 0.019966494 0.11418804
-0.006103585 0.07196543 0.0088268295 -0.027694792 0.16912374 0.09401878 -0.022461412 0.07283048
0.09235877 0.014435691 -0.13301273 0.025615737 0.12005765 0.046808735 -0.15275715 -0.0023259998
0.06156272 -0.067993194 0.05359447 0.051391404 0.115307935 0.056316033 -0.26932272 0.3168239
-0.09896312 0.05019825 -0.04154613 -0.0860798 -0.08798171 -0.013790703 -0.07110262 -0.17239025
0.018044082 -0.2464939 -0.02284634 -0.045534864 -0.1544259 0.26381752 0.02717633 0.018617585
0.27807683 0.3078836 0.007659774 0.22050503 -0.05040776 0.08514655 0.042304687 0.0011094612
-0.18994632 0.06874327 -0.01140913 0.050467815 0.16089939 0.06134742 -0.031487916 0.16396643
0.19216523 -0.10991309 0.06271345 0.008111299 0.14197567 -0.0973121 0.020593077 0.20952141
0.102733985 0.11147789 0.15020114 0.22252585 0.017058669 0.026538292 -0.20519333 0.13613833
0.028213106 0.05042649 -0.09145471 0.02313816 0.12854816 0.19790055 0.048953287 0.058276597
0.15164956 0.1123778 0.053420242 0.12176328 -0.16118333 -0.081896536 0.1700499 0.029670492
0.2115548 -0.11630861 0.06713482 0.08026846 0.3901162 0.048406053 0.035241313 -0.016226845
0.058767512 -0.052477933 0.22598249 0.07118563 0.25131673 -0.02724223 0.29385775 0.24739707
